lab_06/models/cifar10_model_epoch_19.pth (torch_old, 249724 bytes, 10 tensors)

conv1.weight f4 [6, 3, 5, 5]
-0.021227175 -0.389191 0.077814914 0.44314235 -0.008194674 0.2882651 -0.4736168 -0.471553
0.36950868 0.22752428 0.29524428 0.026182372 -0.73161566 -0.1055816 0.29563257 -0.048587438
0.48441103 -0.012286452 -0.41155374 -0.10274146 -0.20278367 0.20822638 0.30778733 -0.14352956
0.020766009 0.044035196 -0.430896 -0.06527862 0.32497296 0.07249885 0.28142586 -0.3687021
-0.564485 0.4719097 0.31307572 0.24096175 0.045590673 -0.7149071 -0.06244744 0.4047242
-0.15060633 0.5211986 -0.03443521 -0.5231496 0.006174215 -0.18072191 0.08744545 0.27160078
-0.15714222 -0.019361796 0.046936084 -0.3984808 0.05488268 0.32865566 -0.26411268 0.3297526
-0.37559053 -0.49732462 0.38736993 0.0017220386 0.34968185 0.22001098 -0.52828205 -0.08433136
0.13834426 -0.0076408586 0.5411118 0.081929296 -0.4459265 -0.06530935 -0.21291517 0.25210643
0.37360284 -0.0187247 -0.068463966 -0.06241243 -0.10691761 0.10865574 0.13734134 -0.0058523477
0.23322564 0.22354254 0.022643676 -0.2465995 -0.20687656 0.23240915 0.23654053 -0.1319011
-0.06638096 -0.057077516 -0.09452586 -0.086664595 0.13774681 0.17423558 0.023995109 -0.06409511
-0.06332612 0.10855109 0.12167839 0.18524374 0.021282086 -0.14691609 0.10555693 0.14973015
0.09530623 0.07672813 0.2165825 -0.035577722 -0.2068719 -0.046735033 0.1653144 0.16386697
0.0039178766 -0.19181368 -0.20976087 -0.16631836 -0.30774805 -0.12288996 0.14568058 0.104287654
-0.27261314 -0.22936672 -0.05232857 -0.044956595 0.1484349 -0.04839279 -0.110782936 0.118879735
0.079235606 -0.0075785806 0.121744655 0.3629797 0.14209409 -0.12161188 -0.2541051 0.23430866
0.35048893 -0.034442253 -0.11912044 -0.09313912 -0.091248654 -0.10195698 0.07503232 0.36017984
0.1807337 -0.20948204 -0.17413639 0.07610401 0.13945957 0.1948946 -0.105779946 -0.14429882
-0.14298707 -0.25772935 -0.13129033 -0.3806111 -0.5019237 -0.44850188 -0.32181364 -0.28537646
-0.08144382 0.09417195 0.0841306 -0.006386922 0.10586475 0.19870278 0.4683416 0.47246823
0.3487956 0.22251284 0.16414991 0.18699394 0.15479808 0.16606554 0.21202382 0.12833065
-0.009714678 0.03000051 0.14598289 -0.03137105 -0.25759786 -0.25865284 -0.30956846 -0.13882078
0.06726666 0.022377763 0.06753554 -0.003034582 0.121685736 0.08203745 0.07275233 0.16888876
0.22784019 0.26246342 0.099034786 -0.013797344 -0.13447139 -0.11720459 -0.13441458 -0.013287004
0.05640231 0.25815946 0.0329851 0.10035147 0.028052842 -0.0887963 -0.157205 -0.28318718
-0.24495736 -0.013784294 -0.024608478 -0.031324334 0.09276423 0.1393683 0.06422235 0.044703938
0.1528403 0.11642361 0.17826128 0.13789873 -0.024794456 -0.033311512 -0.1450485 -0.12158629
-0.13284996 -0.11426897 0.11806681 0.051070336 0.010972744 0.11594506 -0.0151773095 0.19200882
0.25215766 -0.0042932164 0.0820677 -0.15028712 0.24800639 0.20370427 -0.009697611 -0.19154903
0.014815302 0.19368781 0.16862497 -0.04858759 0.041822854 0.0854925 0.1066285 0.043220293
-0.07942866 0.034668922 -0.31026265 0.060980577 0.11063103 -0.15039924 -0.38324988 -0.19633594
00000000: 9de4 adbc 0b44 c7be 6d5d 9f3d 8ee3 e23e
00000010: f442 06bc 7c97 933e e77d f2be 656f f1be
00000020: 3e30 bd3e 20fc 683e 422a 973e 6a7c d63c
00000030: 2a4b 3bbf 2a3b d8bd 275d 973e 9f03 47bd
00000040: b904 f83e 1d4d 49bc 2cb7 d2be 1d6a d2bd
00000050: 86a6 4fbe 4c39 553e 4d96 9d3e 6af9 12be
00000060: 7a1d aa3c 405e 343d 679e dcbe ccb0 85bd
00000070: db62 a63e 477a 943d 0d17 903e 86c6 bcbe
00000080: 1782 10bf 269e f13e 764b a03e adbe 763e
00000090: 49bd 3a3d 2704 37bf e3c8 7fbd 0338 cf3e
000000a0: 8c38 1abe 456d 053f ef0b 0dbd 22ed 05bf
000000b0: 1251 ca3b 2a0f 39be 9a16 b33d 420f 8b3e
000000c0: e4e9 20be a19c 9ebc 0d40 403d ad05 ccbe
000000d0: a9cc 603d 8e45 a83e c739 87be 55d5 a83e
000000e0: 674d c0be 55a1 febe 5a55 c63e 07b6 e13a
000000f0: 8009 b33e 8f4a 613e 7e3d 07bf ecb5 acbd
00000100: 1eaa 0d3e 2b60 fabb 4e86 0a3f 8cca a73d
00000110: 7a50 e4be e9c0 85bd 6f06 5abe 1814 813e
00000120: df48 bf3e 8b64 99bc d636 8cbd 2da4 7fbd
00000130: 9ff7 dabd e786 de3d 35a3 0c3e 0dc5 bfbb
00000140: b4d2 6e3e 56e8 643e 3b7f b93c 9484 7cbe
00000150: 73d7 53be aafc 6d3e ae37 723e 1511 07be
00000160: bef2 87bd 1dca 69bd c696 c1bd 357d b1bd
00000170: 800d 0d3e d06a 323e 6491 c43c 4c44 83bd
00000180: 20b1 81bd 0950 de3d 8532 f93d 89b0 3d3e
00000190: c557 ae3c 2c71 16be 3b2e d83d dc52 193e
000001a0: ea2f c33d a323 9d3d cec7 5d3e f2b9 11bd
000001b0: 3ad6 53be 3c6d 3fbd 2e48 293e becc 273e
000001c0: 8861 803b ce6a 44be 8ecb 56be 5c4f 2abe
000001d0: 2791 9dbe bbad fbbd 4a2d 153e c494 d53d
000001e0: f393 8bbe 1cdf 6abe 7c56 56bd 6824 38bd
000001f0: 52ff 173e 8537 46bd 2ae2 e2bd 3877 f33d
00000200: 4746 a23d be55 f8bb 4355 f93d 7ad8 b93e
00000210: 1d81 113e a60f f9bd 101a 82be 9cee 6f3e
00000220: 4973 b33e 5213 0dbd 6bf5 f3bd b9bf bebd
00000230: 93e0 babd d2ce d0bd 8caa 993d 7e69 b83e
00000240: 4112 393e 7682 56be cf50 32be 6bdc 9b3d
00000250: 7dce 0e3e 7392 473e 28a3 d8bd 12c3 13be
00000260: 346b 12be 1af5 83be f970 06be 75df c2be
00000270: 127e 00bf 0aa2 e5be c2c4 a4be dd1c 92be
00000280: 04cc a6bd 39dd c03d aa4c ac3d 6349 d1bb
00000290: 9ecf d83d be78 4b3e 78ca ef3e 5be7 f13e
000002a0: 5695 b23e 68da 633e ea16 283e 577b 3f3e
000002b0: 6383 1e3e 160d 2a3e c61c 593e 1c69 033e
000002c0: 502a 1fbc a1c3 f53c 8a7c 153e ee7e 00bd
000002d0: dee3 83be 256e 84be c27f 9ebe 0927 0ebe
000002e0: 1ac3 893d 9251 b73c 1350 8a3d d6df 46bb
000002f0: 5f36 f93d 4003 a83d 2cff 943d 2df1 2c3e
00000300: f04e 693e 9b61 863e c0d2 ca3d 410e 62bc
00000310: deb2 09be f608 f0bd faa3 09be bcb1 59bc
00000320: 1c06 673d 7a2d 843e 621b 073d 1285 cd3d
00000330: 13cf e53c d6da b5bd 59fa 20be e9fd 90be
00000340: 1ad6 7abe 85d7 61bc b897 c9bc f24d 00bd
00000350: 2cfb bd3d 90b6 0e3e 0287 833d 7a1b 373d
00000360: 2b82 1c3e 806f ee3d 208a 363e 5335 0d3e
00000370: be1d cbbc a771 08bd 9887 14be 3c02 f9bd
00000380: d209 08be da05 eabd 03cd f13d 212f 513d
00000390: 06c7 333c 9b74 ed3d 40aa 78bc f69d 443e
000003a0: cf1a 813e 1cae 8cbb 1c13 a83d dee4 19be
000003b0: 63f5 7d3e da97 503e bbe2 1ebc 6e25 44be
000003c0: e1bb 723c 1956 463e 06ac 2c3e c803 47bd
000003d0: 714e 2b3d b116 af3d 0b60 da3d c307 313d
000003e0: 7eab a2bd 0001 0e3d bfda 9ebe c5c6 793d
000003f0: 8592 e23d 4202 1abe 5439 c4be 4a0c 49be

conv1.bias f4 [6]
0.036857747 0.33033904 0.039657123 0.4806301 -0.34723765 0.7258554
00000000: 26f8 163d 3322 a93e 826f 223d 2615 f63e
00000010: 22c9 b1be a9d1 393f

conv2.weight f4 [16, 6, 5, 5]
-0.00031720145 -0.02959195 -0.0059134876 -0.006302767 -0.087055646 0.05072496 -0.10673464 0.01619116
-0.13646133 0.01871931 -0.043013997 -0.002422465 -0.16372602 -0.16347478 -0.08034282 0.082285255
0.02325897 -0.119566575 0.12821366 -0.02876595 -0.08963198 -0.087945215 -0.06940167 -0.039973
-0.062170904 0.08744293 -0.07674454 -0.036891695 0.05728468 -0.020099066 0.025809115 0.054301452
-0.034328107 0.0006070309 0.16029446 0.11775114 -0.056831468 -0.06270422 0.0165233 0.13345663
-0.06139421 0.059890226 -0.019601619 0.04326842 -0.022426188 -0.0013034542 0.09574561 -0.073816836
0.063238636 -0.031659216 -0.0039597997 0.0858082 -0.0060572047 0.033863503 -0.02352117 0.09922946
0.009067952 -0.05986712 -0.037532587 0.00064925064 0.07187275 0.02484114 0.028494833 -0.055868756
0.13969614 0.08979921 0.04490348 0.06694794 0.09189446 0.1924787 0.04123501 0.16515613
0.110704355 0.0059687085 -0.026498955 0.013784596 -0.010322565 0.040689457 -0.07089582 -0.004353231
-0.0058323424 0.08219432 0.0669554 -0.00031501037 -0.044384748 0.066482745 0.008745518 -0.0067370487
0.017788557 0.009721846 -0.018484341 -0.009076902 -0.07862682 -0.14440142 0.077018626 -0.039043203
-0.16565791 -0.1448677 0.013238234 -0.15228559 0.10006541 0.06118284 0.10754088 0.15249255
0.16494082 0.19404441 0.08027561 0.046595883 0.17242585 0.3233812 0.14718805 0.14451844
0.17955439 0.2769764 0.105553545 0.10558726 0.17440708 0.19868323 0.24508789 0.10543345
0.0910618 0.33898374 0.3681955 0.08508338 -0.07122927 -0.017978515 0.0547143 0.08015872
-0.008942285 -0.0048871315 -0.009503541 0.03578742 0.079337545 -0.060152277 -0.06795623 0.008201198
-0.09527355 -0.022378737 -0.052206635 0.021716135 -0.013106259 0.034158174 -0.035175364 -0.027581679
-0.050293595 0.048497792 0.13306232 0.046436682 -0.055356044 -0.002432773 0.15558943 0.035543695
-0.14473483 0.11730111 -0.044585925 -0.030738909 -0.07954133 -0.27559203 -0.07323253 0.085241534
-0.11277622 -0.06717458 -0.24095008 -0.32083288 0.10112025 -0.04640928 0.009624773 -0.13578898
-0.2699891 0.15548833 -0.015701989 0.06879468 0.0027229907 -0.16944028 0.28171515 -0.11413139
0.06256199 0.063233264 -0.013797311 0.1202683 -0.0045253024 -0.03922804 -0.005228439 -0.015473452
0.16021669 -0.09057256 -0.07230719 -0.106274374 -0.16525035 -0.017225407 -0.14704224 -0.11283455
-0.07934885 -0.06155459 -0.040053867 -0.12375853 -0.08012443 0.019345257 0.04253513 -0.02064165
0.18660378 0.29062855 0.31512842 0.20274697 0.22365703 0.20797753 0.09002688 0.26689863
0.19974262 0.21563241 -0.060175534 -0.13043506 -0.050712377 -0.08306369 -0.11185254 -0.110907264
-0.17429225 -0.13983516 -0.09458495 -0.12030003 0.07580992 0.09234317 0.029998738 0.06950355
-0.040541563 -0.0755423 -0.031704012 0.04521652 0.061932825 -0.038166195 0.031423688 -0.009611627
0.16205738 0.16904731 0.028937912 0.10745253 0.0145118 0.04425535 0.12945008 0.034460396
0.07375725 0.0397188 0.024633637 0.0968926 -0.054975867 -0.04653046 -0.018505333 -0.027404811
0.16253224 -0.030515967 0.13077155 0.086037315 -0.052078996 -0.032788116 0.04758259 0.12527896
00000000: 0f4e a6b9 d16a f2bc eec5 c1bb 7187 cebb
00000010: 3b4a b2bd fac4 4f3d b197 dabd 53a3 843c
00000020: 85bc 0bbe 3d59 993c 722f 30bd 38c2 1ebb
00000030: cba7 27be ef65 27be c78a a4bd 2c85 a83d
00000040: 9889 be3c 52df f4bd 714a 033e 92a6 ebbc
00000050: f990 b7bd 9f1c b4bd 7622 8ebd baba 23bd
00000060: eba6 7ebd 4715 b33d 3e2c 9dbd bf1b 17bd
00000070: 57a3 6a3d cca6 a4bc a36d d33c 336b 5e3d
00000080: a19b 0cbd 2721 1f3a 3b24 243e 8227 f13d
00000090: 1dc8 68bd 126b 80bd df5b 873c dba8 083e
000000a0: 7f78 7bbd 744f 753d 9393 a0bc 3a3a 313d
000000b0: 20b7 b7bc aad8 aaba 4616 c43d 482d 97bd
000000c0: 4283 813d 18ad 01bd 35c1 81bb 36bc af3d
000000d0: 847b c6bb 75b4 0a3d 78af c0bc d138 cb3d
000000e0: bf91 143c 3a37 75bd c5bb 19bd 7932 2a3a
000000f0: 0532 933d a57f cb3c ff6d e93c a3d6 64bd
00000100: 810c 0f3e a6e8 b73d b6ec 373d 001c 893d
00000110: 2a33 bc3d 2319 453e 0be6 283d b01e 293e
00000120: f7b8 e23d 2895 c33b 5614 d9bc c9d8 613c
00000130: fa1f 29bc fda9 263d d431 91bd 8ca5 8ebb
00000140: 3c1d bfbb 7f55 a83d ea1f 893d fa27 a5b9
00000150: c8cc 35bd 1b28 883d 5c49 0f3c 76c2 dcbb
00000160: 4fb9 913c 6148 1f3c 796c 97bc 49b7 14bc
00000170: 1907 a1bd f7dd 13be f1bb 9d3d c4eb 1fbd
00000180: 3aa2 29be 3358 14be 2ee5 583c c1f0 1bbe
00000190: 18ef cc3d dc9a 7a3d 653e dc3d 0227 1c3e
000001a0: 3fe6 283e 94b3 463e 8a67 a43d 53db 3e3d
000001b0: 6790 303e 3892 a53e 77b8 163e a4fc 133e
000001c0: 1bdd 373e dacf 8d3e 752c d83d 223e d83d
000001d0: c597 323e 9e73 4b3e 52f8 7a3e 7eed d73d
000001e0: 9c7e ba3d 478f ad3e 1f84 bc3e 3240 ae3d
000001f0: a7e0 91bd ae47 93bc 1a1c 603d 412a a43d
00000200: a982 12bc 3b24 a0bb bdb4 1bbc d495 123d
00000210: b97b a23d 3c62 76bd a32c 8bbd 515e 063c
00000220: c71e c3bd 9d53 b7bc a0d6 55bd 09e6 b13c
00000230: a2bb 56bc 71e9 0b3d 0b14 10bd f9f2 e1bc
00000240: a800 4ebd 9fa5 463d 7d41 083e 6434 3e3d
00000250: 05bd 62bd 286f 1fbb d652 1f3e 4496 113d
00000260: 5e35 14be 903b f03d bb9f 36bd 2ad0 fbbc
00000270: 91e6 a2bd 661a 8dbe f0fa 95bd 1d93 ae3d
00000280: 38f7 e6bd d492 89bd 9ebb 76be 3544 a4be
00000290: 2218 cf3d a817 3ebd 39b1 1d3c 440c 0bbe
000002a0: 033c 8abe 5538 1f3e 75a1 80bc 3ae4 8c3d
000002b0: 3474 323b c181 2dbe f83c 903e b8bd e9bd
000002c0: 8020 803d 7180 813d 1e0e 62bc 3a4f f63d
000002d0: fd48 94bb 95ad 20bd 5353 abbb 5d84 7dbc
000002e0: d80f 243e 1b7e b9bd cb15 94bd 61a6 d9bd
000002f0: 6337 29be 4c1c 8dbc 3e92 16be cd15 e7bd
00000300: a681 a2bd aa20 7cbd 860f 24bd 1d75 fdbd
00000310: 4718 a4bd f279 9e3c 5139 2e3d ad18 a9bc
00000320: 1015 3f3e 44cd 943e 8358 a13e e79c 4f3e
00000330: 5906 653e 10f8 543e 0360 b83d f0a6 883e
00000340: 5489 4c3e bece 5c3e 9f7a 76bd c590 05be
00000350: c8b7 4fbd 4c1d aabd f212 e5bd 5923 e3bd
00000360: ab79 32be f330 0fbe c1b5 c1bd dd5f f6bd
00000370: 3b42 9b3d 6a1e bd3d eabf f53c e157 8e3d
00000380: e90e 26bd ecb5 9abd 11dc 01bd f534 393d
00000390: 46ad 7d3d 2854 1cbd 20b6 003d 167a 1dbc
000003a0: 5ff2 253e bd1a 2d3e 330f ed3c 1210 dc3d
000003b0: e7c2 6d3c 1945 353d 908e 043e 5826 0d3d
000003c0: 0b0e 973d 2eb0 223d 7bcc c93c a16f c63d
000003d0: 602e 61bd b996 3ebd 7f98 97bc 0e80 e0bc
000003e0: da6e 263e 9ffc f9bc fae8 053e 5534 b03d
000003f0: c950 55bd d54c 06bd f6e5 423d 2149 003e

conv2.bias f4 [16]
-0.39608732 -0.4250621 0.016844098 -0.20958507 0.12100318 0.46320885 0.24940771 -0.44471955
-0.8691242 -0.050437912 -0.06389541 0.74091303 0.1327692 0.25810775 0.15987612 0.27189615
00000000: f5cb cabe bda1 d9be a2fc 893c 789d 56be
00000010: 84d0 f73d b629 ed3e bc64 7f3e 48b2 e3be
00000020: ec7e 5ebf fc97 4ebd 99db 82bd 7aac 3d3f
00000030: a6f4 073e b326 843e 91b6 233e f935 8b3e

linear1.weight f4 [120, 400]
0.042605937 0.044533573 0.002124392 -0.01612095 -0.0358591 -0.03092632 0.02283186 0.0049316473
-0.002360354 -0.0014879488 0.07052993 0.07223634 -0.013395774 0.03851803 0.020588081 0.03686659
0.07970792 0.06386375 0.038726114 -0.022245202 0.03192387 0.018996451 0.0483773 -0.022506401
-0.08881044 0.0065445043 -0.036603015 -0.04149432 -0.02736499 -0.039598133 0.053566404 -0.029964676
0.010973721 -0.017115625 0.034093827 -0.03173405 -0.04787139 0.020491319 0.06090173 0.03746875
0.04170132 0.01672294 -0.004406539 -0.0074295583 -0.011521506 0.0075698136 0.050609563 0.035027467
-0.01242481 -0.020362731 -0.066089645 0.03690964 0.045450874 -0.024133885 -0.02439466 -0.043165226
-0.04485275 -0.015661424 -0.06855355 0.023002531 0.054268923 -0.01902294 -0.036063258 -0.04233344
0.01967046 0.06532794 -0.026692122 -0.06053686 -0.0062607047 0.016058305 -0.0096943965 0.010841162
-0.08931842 -0.009086837 0.0263556 -0.019643325 0.024747798 0.05662112 0.013169772 -0.011959257
0.022341454 -0.01461276 0.039274637 -0.01765185 -0.04680334 -0.072759256 -0.03614466 0.0045946655
-0.007496945 0.0019343486 0.07985508 0.04075591 0.027324662 0.006677661 0.013158104 -0.027062343
0.01814872 -0.038254943 0.034607977 -0.015497555 -0.038493462 0.020134235 -0.015532063 -0.0041076695
-0.04888607 -0.017658735 -0.0227603 -0.034149803 -0.013183884 -0.037144743 -0.0013297823 0.04039407
0.019200614 0.0375514 0.0110116135 0.02850692 0.024971943 0.044230957 -0.014134017 -0.008689921
-0.027110742 0.021115288 -0.03764987 0.01398459 0.045242567 -0.048395105 -0.013007774 -0.0711558
-0.0610201 -0.03511679 -0.05431265 -0.03681557 -0.08342533 -0.043088123 -0.02536819 -0.034573734
-0.050938398 -0.014117702 0.029049082 -0.010697415 -0.043052256 -0.015600147 -0.014920098 0.07255751
0.03115309 -0.032830033 -0.059492476 0.039242703 0.054608863 0.010149952 0.018839657 -0.009309105
0.010002246 -0.03237059 -0.03553433 0.0052610873 0.031105021 -0.060688913 0.011096104 -0.080438405
0.054008216 0.015513776 -0.015373972 -0.017954504 0.014054479 -0.0077737505 -0.047823567 -0.022262752
0.029396193 -0.05775083 -0.059779543 -0.0040258225 -0.042754445 0.061029166 -0.06005442 -0.0016986651
-0.009516888 0.027774299 -0.053886455 0.023528336 -0.019397972 -0.0146064125 -0.017792542 0.014814948
0.025434459 0.04130719 -0.018426929 0.023542782 0.0042985785 0.048390467 -0.0094673615 0.024165904
0.0042481096 -0.04606262 -0.037816532 -0.040286377 -0.06716314 -0.021145072 0.026334511 -0.0735867
0.011254387 0.054991458 0.017386992 -0.031884458 0.024913423 0.01842943 0.007167239 -0.071917444
-0.018631477 -0.060963143 -0.027080892 0.04533084 -0.024729865 0.044230398 -0.05527112 -0.024066577
0.0633343 0.0099964 -0.012290738 0.04419775 -0.033532064 -0.0010484443 -0.016694993 -0.026641082
0.03425688 -0.02907169 0.0028914812 -0.009288553 -0.08071516 -0.021703944 -0.015837675 0.044709172
-0.022992281 0.0315834 -0.0032076729 -0.02341877 0.05487324 0.048313618 0.029535472 -0.01646638
0.024760665 0.054882843 -0.008105303 0.012254392 -0.001659085 0.0684501 -0.020611644 0.008739961
0.03742406 -0.012157822 -0.033471167 -0.016359454 -0.03350939 0.008506787 -0.049458392 -0.014027885
00000000: 9083 2e3d d668 363d 6239 0b3b 1510 84bc
00000010: fee0 12bd 3259 fdbc e209 bb3c a899 a13b
00000020: 2bb0 1abb 4707 c3ba ff71 903d a5f0 933d
00000030: f379 5bbc 15c5 1d3d 56a8 a83c 6c01 173d
00000040: e83d a33d ffca 823d 469f 1e3d 923b b6bc
00000050: 9bc2 023d 729e 9b3c 4727 463d 585f b8bc
00000060: 3fe2 b5bd 4873 d63b 0bed 15bd f3f5 29bd
00000070: 8b2c e0bc a731 22bd 7268 5b3d 7b78 f5bc
00000080: 1fcb 333c 1136 8cbc f8a5 0b3d 90fb 01bd
00000090: ca14 44bd 69dd a73c 1874 793d d578 193d
000000a0: 01cf 2a3d 8cfe 883c ba64 90bb a773 f3bb
000000b0: b3c4 3cbc 330c f83b f94b 4f3d f678 0f3d
000000c0: 6e91 4bbc becf a6bc 025a 87bd 902e 173d
000000d0: b22a 3a3d 6db4 c5bc 4fd7 c7bc 05ce 30bd
000000e0: 84b7 37bd 634c 80bc ce65 8cbd ce6f bc3c
000000f0: 1749 5e3d ffd5 9bbc 11b7 13bd d465 2dbd
00000100: f223 a13c a8ca 853d 70a9 dabc 80f5 77bd
00000110: 9926 cdbb b58c 833c 3fd5 1ebc 219f 313c
00000120: 93ec b6bd f5e0 14bc b3e7 d73c 0aeb a0bc
00000130: e5bb ca3c 8ceb 673d 07c6 573c c2f0 43bc
00000140: 6d05 b73c 5c6a 6fbc 71de 203d 9d9a 90bc
00000150: dcb4 3fbd ce02 95bd 6c0c 14bd d98e 963b
00000160: efa8 f5bb f889 fd3a 0f8b a33d abef 263d
00000170: f8d7 df3c 48d0 da3b 1795 573c d9b1 ddbc
00000180: a0ac 943c 37b1 1cbd 18c1 0d3d 75e9 7dbc
00000190: 52ab 1dbd 8df0 a43c 327a 7ebc a199 86bb
000001a0: c23c 48bd 0da9 90bc cf73 babc aae0 0bbd
000001b0: 3801 58bc 1625 18bd 174c aeba 4174 253d
000001c0: 9b4a 9d3c 7fcf 193d 0e6a 343c 5887 e93c
000001d0: f691 cc3c 852b 353d 5d92 67bc 2c60 0ebc
000001e0: 5917 debc f8f9 ac3c c036 1abd 9f1f 653c
000001f0: 4550 393d f239 46bd 8f1e 55bc 22ba 91bd
00000200: 36f0 79bd a0d6 0fbd f176 5ebd eccb 16bd
00000210: e6da aabd 2c7d 30bd f3d0 cfbc 309d 0dbd
00000220: c8a4 50bd ef4d 67bc 57f8 ed3c 3644 2fbc
00000230: 9057 30bd c297 7fbc 6d73 74bc 0899 943d
00000240: c434 ff3c c978 06bd 62ae 73bd f5bc 203d
00000250: 8bad 5f3d fc4b 263c a055 9a3c 3785 18bc
00000260: 76e0 233c 0697 04bd 728c 11bd 3365 ac3b
00000270: f5cf fe3c f094 78bd 6fcc 353c e4bc a4bd
00000280: b837 5d3d 7e2d 7e3c 1de3 7bbc 5315 93bc
00000290: c244 663c f2ba febb a5e2 43bd 6060 b6bc
000002a0: 49d0 f03c 228c 6cbd 65db 74bd 0ceb 83bb
000002b0: 491f 2fbd b8f9 793d a0fb 75bd bea5 deba
000002c0: b9ec 1bbc ed86 e33c 0bb8 5cbd 7fbe c03c
000002d0: 7fe8 9ebc bc4f 6fbc aac1 91bc 65ba 723c
000002e0: ed5b d03c ba31 293d 12f4 96bc cbdc c03c
000002f0: 17db 8c3b 1535 463d fe1c 1bbc 93f7 c53c
00000300: ba33 8b3b 28ac 3cbd 82e5 1abd 5403 25bd
00000310: d48c 89bd 6e38 adbc 79bb d73c a0b4 96bd
00000320: 5264 383c b93e 613d 2a6f 8e3c 4799 02bd
00000330: 3c17 cc3c 51f9 963c 29db ea3b 7449 93bd
00000340: 0aa1 98bc 7db4 79bd bfd8 ddbc d5ac 393d
00000350: 4996 cabc ef2a 353d f863 62bd 4527 c5bc
00000360: 6ab5 813d f1c7 233c 175f 49bc b308 353d
00000370: eb58 09bd f46b 89ba f0c3 88bc 663e dabc
00000380: f150 0c3d c127 eebc 017f 3d3b 042f 18bc
00000390: fd4d a5bd 78cc b1bc 03be 81bc f720 373d
000003a0: 4f5a bcbc 985d 013d d237 52bb b8d8 bfbc
000003b0: c3c2 603d 80e4 453d 60f4 f13c 80e4 86bc
000003c0: e1d6 ca3c d5cc 603d 1bcc 04bc a5c6 483c
000003d0: a875 d9ba 912f 8c3d c0d9 a8bc 0e32 0f3c
000003e0: f949 193d 9a31 47bc 1019 09bd 4304 86bc
000003f0: 2441 09bd 0d60 0b3c e294 4abd 37d5 65bc

linear1.bias f4 [120]
-0.06095354 0.053942695 -0.02964039 0.16352911 -0.047835875 0.040624827 -0.024334865 0.06382523
-0.050392207 0.16778927 -0.035311446 -0.029569637 0.09230053 0.08878996 0.013654828 0.07071482
-0.042883594 -0.042152464 -0.069224045 0.017345222 -0.0028350072 -0.113323316 -0.02110555 -0.016298706
0.103112705 0.114704244 -0.015721614 0.09327712 0.02250899 -0.05337763 0.009003978 -0.08257934
0.053742882 -0.033933815 0.031705182 -0.04325166 0.075781584 -0.002058037 -0.008716685 -0.023397407
0.0044801133 0.04683378 0.09686479 -0.12718995 0.11651756 0.13310193 0.039924104 -0.0026354122
-0.078650266 0.1086396 0.033973355 0.08567954 0.025710102 -0.03883034 0.0434836 0.20091818
-0.024123315 -0.026195902 0.0066816956 -0.09567198 -0.032301955 -0.066885345 -0.08550395 0.02311713
-0.038561672 0.07577083 -0.01387025 -0.032779433 0.0495527 0.07367413 -0.014316822 0.006773989
-0.10243799 0.07624867 0.040122997 0.0033039548 -0.06927247 0.10774741 0.017288517 0.10548428
-0.064906776 -0.028636063 -0.023532413 0.16095744 -0.0092319865 0.046158955 -0.020033825 0.022169396
0.046057295 0.03338585 0.039007697 0.094133966 -0.036640797 -0.07101855 -0.008885533 0.1102811
0.035507616 -0.00027117383 -0.106521614 0.033309147 0.048682306 -0.07414187 0.065607384 0.017015431
-0.013888753 -0.0334199 -0.11305468 0.039541718 -0.00319589 0.03169167 0.080329455 0.08715317
0.11247556 -0.09826578 -0.047554575 0.09818863 0.032880105 -0.13238023 0.029080825 -0.0044262386
00000000: 6baa 79bd 04f3 5c3d 67d0 f2bc 2d74 273e
00000010: 8def 43bd 3866 263d e959 c7bc cdb6 823d
00000020: 0f68 4ebd f3d0 2b3e bca2 10bd 063c f2bc
00000030: 0f08 bd3d 83d7 b53d 80b8 5f3c eed2 903d
00000040: b5a6 2fbd 10a8 2cbd 56c5 8dbd 9117 8e3c
00000050: 87cb 39bb 0e16 e8bd 8ce5 acbc dd84 85bc
00000060: c12c d33d 0fea ea3d 9dca 80bc 1308 bf3d
00000070: c664 b83c 80a2 5abd 6c85 133c 5b1f a9bd
00000080: 7f21 5c3d 2ffe 0abd 4bdd 013d a728 31bd
00000090: 6033 9b3d 22e0 06bb 6dd0 0ebc ebab bfbc
000000a0: eacd 923b c7d4 3f3d 0c61 c63d 153e 02be
000000b0: c2a0 ee3d df4b 083e 7587 233d e1b6 2cbb
000000c0: 6413 a1bd 707e de3d a527 0b3d c178 af3d
000000d0: fe9d d23c 900c 1fbd dc1b 323d 7fbd 4d3e
000000e0: 429e c5bc ca98 d6bc 20f2 da3b acef c3bd
000000f0: 0e4f 04bd 2ffb 88bd b21c afbd 2360 bd3c
00000100: d8f2 1dbd bd2d 9b3d 0c40 63bc ba43 06bd
00000110: c6f7 4a3d 76e2 963d 1b91 6abc 57f8 dd3b
00000120: 02cb d1bd 4328 9c3d 0358 243d 2a87 583b
00000130: bade 8dbd adaa dc3d a6a0 8d3c 2408 d83d
00000140: d8ed 84bd 2d96 eabc 0cc7 c0bc 07d2 243e
00000150: c241 17bc 2c11 3d3d fa1d a4bc 989c b53c
00000160: 93a6 3c3d 9abf 083d 89c6 1f3d 4fc9 c03d
00000170: a914 16bd 2c72 91bd a094 11bc 0fdb e13d
00000180: 6f70 113d 562c 8eb9 0128 dabd 2c6f 083d
00000190: 1967 473d b1d7 97bd 2a5d 863d f263 8b3c
000001a0: a78d 63bc 4ee3 08bd 3689 e7bd 7ff6 213d
000001b0: 2372 51bb 20cf 013d c583 a43d 5c7d b23d
000001c0: 9659 e63d 923f c9bd 96c8 42bd 1f17 c93d
000001d0: 4aad 063d af8e 07be e93a ee3c fb09 91bb

linear2.weight f4 [84, 120]
0.020236269 0.050829805 0.061929464 0.12886097 -0.058340546 0.084742434 -0.031496216 -0.030791743
0.015176974 -0.11338861 -0.031594448 0.055902746 -0.013697603 0.070072904 0.028911956 0.11295014
-0.026409777 -0.041553292 -0.037377194 -0.076470196 -0.04811607 -0.044457193 0.054671247 0.009845742
0.08352022 0.057271954 -0.076017685 -0.081621125 -0.009390384 0.08449705 0.064341865 -0.10724451
0.070537776 0.09533047 -0.012987512 0.03568121 -0.067743905 -0.073949166 -0.0469197 0.16929097
-0.011215964 -0.18686457 0.035492897 0.07591464 0.033213496 0.07046077 0.10769393 0.11170804
-0.08892515 -0.044119406 -0.074222 -0.02781962 0.056973096 0.12446634 -0.042516034 -0.005970631
-0.10587628 -0.036840405 0.059013527 0.070308566 -0.08195016 -0.1609879 -0.063276544 0.07833603
0.016212458 0.105404936 0.015470833 0.057185054 0.03885697 0.09710535 -0.0522179 0.045609143
0.034129653 0.105713785 -0.009429873 0.043023944 0.065273926 0.079832666 -0.026243992 0.051203914
-0.01502523 0.039061524 -0.064382985 -0.15617727 0.02847385 0.07096719 0.1526628 -0.10833436
-0.0042112092 0.039771378 0.05244979 -0.031194746 0.13737369 -0.069401994 -0.031214146 0.05507714
0.0018185095 -0.15586732 0.0034806193 -0.094129264 -0.08886161 0.07890066 0.0009935987 0.08417992
0.12363713 -0.027202044 0.086956024 0.050556626 0.023430634 -0.09143934 -0.04809735 0.023682041
-0.010170237 -0.09627986 0.04169827 0.010192618 0.14094763 0.101246946 -0.0020144759 -0.07518147
0.15293199 -0.020285191 -0.014030138 -0.10925012 0.059793126 0.021476343 -0.013788827 -0.047927998
0.039447077 -0.08194358 -0.08713586 -0.008274149 -0.021046076 0.009521216 -0.0030680315 -0.026155917
-0.036137108 0.07689614 -0.06957836 0.11232925 -0.05392962 -0.017971382 -0.021565761 0.0037957588
0.04857811 -0.22280063 0.16914634 -0.007703549 -0.050445538 0.01705202 0.13136552 0.006172135
0.007782731 0.14752136 -0.12463118 -0.059399575 -0.09425876 0.09581129 -0.09659267 -0.072854675
0.07612648 0.002292709 -0.1349378 0.09932746 -0.0700353 -0.06424543 -0.035462376 0.06319168
0.112447314 -0.11256654 -0.024897931 -0.031149244 -0.025617315 -0.051683493 0.049964163 -0.037771247
-0.058647443 0.093850784 0.07321286 0.102466695 0.14232506 -0.031010851 -0.09009171 -0.042443477
-0.0822691 -0.009056 -0.07349485 0.10953629 -0.1584547 0.041074034 -0.0008077376 -0.102614515
0.086693816 -0.06971137 0.11928186 -0.10409104 -0.12632222 -0.1515955 0.14354192 0.09405757
0.043531567 -0.015671764 0.14614467 0.05802235 0.11319698 -0.03166104 0.029884188 0.06275581
-0.05703726 -0.018646345 0.016586354 0.015200351 -0.08821604 -0.020991758 -0.04604477 -0.04228913
0.05341089 -0.08650265 -0.018481879 -0.10983066 0.005209088 -0.09944311 -0.05162723 0.07406635
0.056915738 0.06693108 -0.034286603 0.06465572 0.039309677 -0.0956133 -0.0734534 0.08157003
0.08081953 0.066681676 -0.06907979 -0.016896768 0.0072297384 0.058329344 -0.03237412 -0.040631004
0.072634414 -0.095409244 -0.015402979 0.08475907 0.11914751 0.033038493 0.024046216 0.012534271
-0.034625832 -0.015028867 0.010258549 0.07425883 -0.06071182 -0.029507197 0.10149006 0.045509815
00000000: 88c6 a53c ea32 503d c0a9 7d3d 21f4 033e
00000010: 7ff6 6ebd 718d ad3d 2d02 01bd f73e fcbc
00000020: d8a8 783c 4a38 e8bd 2e69 01bd 47fa 643d
00000030: e96b 60bc 6282 8f3d c4d8 ec3c 6752 e73d
00000040: 5159 d8bc c933 2abd d418 19bd 689c 9cbd
00000050: 5b15 45bd bf18 36bd f5ee 5f3d 0950 213c
00000060: a60c ab3d ff95 6a3d 29af 9bbd fa28 a7bd
00000070: 20da 19bc ca0c ad3d abc5 833d 02a3 dbbd
00000080: 1c76 903d 9f3c c33d 93c9 54bc 7626 123d
00000090: 51bd 8abd a972 97bd df2e 40bd 9d5a 2d3e
000000a0: 2ac3 37bc 6d59 3fbe 0061 113d 2379 9b3d
000000b0: e00a 083d bc4d 903d a38e dc3d 2fc7 e43d
000000c0: 641e b6bd 8db6 34bd b401 98bd f9e5 e3bc
000000d0: 9f5c 693d 35e8 fe3d 4b25 2ebd 48a5 c3bb
000000e0: aad5 d8bd f7e5 16bd 2bb8 713d f0fd 8f3d
000000f0: 7cd5 a7bd 03da 24be 2297 81bd a46e a03d
00000100: fdcf 843c 8bde d73d 6079 7d3c e03a 6a3d
00000110: 7c28 1f3d 2bdf c63d 70e2 55bd a7d0 3a3d
00000120: 89cb 0b3d 7880 d83d c17f 1abc e039 303d
00000130: 56ae 853d 4f7f a33d a4fd d6bc 32bb 513d
00000140: 622c 76bc fafe 1f3d 3adb 83bd efec 1fbe
00000150: fe41 e93c 3f57 913d a353 1c3e 68de ddbd
00000160: 2ffe 89bb 50e7 223d 97d5 563d 208c ffbc
00000170: b0ab 0c3e a222 8ebd cfb4 ffbc 9198 613d
00000180: 0e5b ee3a af9b 1fbe 1a1b 643b d8c6 c0bd
00000190: 13fd b5bd ab96 a13d a43b 823a 8666 ac3d
000001a0: 7735 fd3d d2d6 debc 0016 b23d 7714 4f3d
000001b0: 9af1 bf3c 8c44 bbbd ba01 45bd d700 c23c
000001c0: 11a1 26bc 602e c5bd cecb 2a3d f0fe 263c
000001d0: 9354 103e 8f5a cf3d 4c05 04bb bef8 99bd
000001e0: 349a 1c3e 212d a6bc aade 65bc 87be dfbd
000001f0: a3e9 743d 28ef af3c 88ea 61bc 2650 44bd
00000200: 4293 213d 09d2 a7bd 4974 b2bd 4c90 07bc
00000210: d268 acbc e0fe 1b3c 0711 49bb ef44 d6bc
00000220: 8104 14bd b97b 9d3d 197f 8ebd e10c e63d
00000230: 4ee5 5cbd b838 93bc aeaa b0bc 44c2 783b
00000240: d7f9 463d d925 64be b334 2d3e 0e6e fcbb
00000250: fb9f 4ebd aeb0 8b3c af84 063e 9f3f ca3b
00000260: 4806 ff3b d70f 173e a23e ffbd f84c 73bd
00000270: bd0a c1bd b638 c43d 61d2 c5bd d534 95bd
00000280: 33e8 9b3d 4641 163b 222d 0abe 326c cb3d
00000290: ab6e 8fbd 1c93 83bd ff40 11bd a46a 813d
000002a0: c74a e63d 4989 e6bd bff6 cbbc b32c ffbc
000002b0: 67db d1bc 12b2 53bd 39a7 4c3d 06b6 1abd
000002c0: 4d38 70bd d734 c03d a0f0 953d 0fda d13d
000002d0: a9bd 113e 780a febc 0182 b8bd 36d9 2dbd
000002e0: b47c a8bd 9e5f 14bc 7884 96bd 9054 e03d
000002f0: f341 22be 3f3d 283d 5abe 53ba 8f27 d2bd
00000300: 878c b13d d6c4 8ebd 0c4a f43d af2d d5bd
00000310: 9d5a 01be da3b 1bbe a7fc 123e 41a1 c03d
00000320: 284e 323d 1262 80bc f3a6 153e d8a8 6d3d
00000330: d1d3 e73d 02af 01bd afcf f43c 1e86 803d
00000340: e79f 69bd 38c0 98bc 1be0 873c e50a 793c
00000350: 9caa b4bd e8f6 abbc 7199 3cbd 5e37 2dbd
00000360: 61c5 5a3d 4d28 b1bd 4f67 97bc e6ee e0bd
00000370: ffb0 aa3b d4a8 cbbd 1377 53bd 19b0 973d
00000380: 7a20 693d 2913 893d 1c70 0cbd 386a 843d
00000390: 2f03 213d e8d0 c3bd bc6e 96bd 300e a73d
000003a0: b684 a53d 6790 883d b479 8dbd 176b 8abc
000003b0: 71e7 ec3b c0ea 6e3d ba9a 04bd b26c 26bd
000003c0: 5ac1 943d ec65 c3bd c75c 7cbc 2a96 ad3d
000003d0: 9c03 f43d 5f53 073d 92fc c43c 8b5c 4d3c
000003e0: d1d3 0dbd a33b 76bc 7913 283c 0315 983d
000003f0: f5ac 78bd 14b9 f1bc 05da cf3d 8068 3a3d

linear2.bias f4 [84]
-0.11426406 0.0010054297 -0.07673009 0.22059524 0.019945242 -0.018202938 0.1890557 -0.023957444
0.08376038 0.042488277 0.026458692 -0.056047916 -0.013152891 -0.033163384 0.031239824 -0.043779954
-0.09489601 0.21165809 0.29269713 0.20716244 -0.065115415 -0.06286795 0.033547293 -0.11400638
-0.003599227 -0.2348481 -0.06981527 -0.11926308 0.0794437 0.08687919 -0.030593136 -0.07481624
-0.07153616 0.011965908 -0.08825333 -0.06945834 0.114242606 -0.084463514 -0.1502472 -0.100115165
-0.01628178 0.024826443 0.19406003 -0.08980385 0.27813438 -0.06906446 0.046789892 -0.067922354
-0.08451102 0.1433064 -0.07465485 0.0155522935 -0.019775495 0.15743837 0.09334204 -0.11590705
0.12280707 0.050324824 -0.04892501 -0.043082822 0.10252887 -0.0759848 -0.05122254 0.107690565
-0.13589858 0.12867542 -0.053495787 0.020844126 0.04194111 -0.029551176 0.13874912 -0.10924569
0.13826509 0.09378943 0.28039527 -0.017941091 0.026158005 -0.0676239 0.10374336 0.24001023
0.17961022 -0.009534042 -0.006136501 -0.13540971
00000000: 4703 eabd 9fc8 833a aa24 9dbd b8e3 613e
00000010: 3464 a33c 541e 95bc d197 413e 6742 c4bc
00000020: 908a ab3d 3008 2e3d e6bf d83c 8092 65bd
00000030: 397f 57bc 54d6 07bd a9ea ff3c 9c52 33bd
00000040: d758 c2bd e6bc 583e 66dc 953e 6422 543e
00000050: 3b5b 85bd e9c0 80bd e368 093d 2d7c e9bd
00000060: 02e1 6bbb 057c 70be 4ffb 8ebd 3440 f4bd
00000070: 61b3 a23d b7ed b13d 759e fabc 4239 99bd
00000080: 8d81 92bd a80c 443c 29be b4bd 2d40 8ebd
00000090: 07f8 e93d 35fb acbd 67da 19be 2e09 cdbd
000000a0: 5e61 85bc d360 cb3c acb7 463e 15eb b7bd
000000b0: a167 8e3e ab71 8dbd c2a6 3f3d e01a 8bbd
000000c0: 1d14 adbd eabe 123e a4e4 98bd 0ccf 7e3c
000000d0: 3800 a2bc 8637 213e 1d2a bf3d ad60 edbd
000000e0: 4682 fb3d 6721 4e3d 9765 48bd 9d77 30bd
000000f0: a8fa d13d eb9d 9bbd bace 51bd df8c dc3d
00000100: ff28 0bbe 7dc3 033e 661e 5bbd 4dc1 aa3c
00000110: 71ca 2b3d 4f15 f2bc 4014 0e3e 34bc dfbd
00000120: 5d95 0d3e ac14 c03d f88f 8f3e 32f9 92bc
00000130: 5049 d63c 667e 8abd 6677 d43d 3ec5 753e
00000140: beeb 373e ac34 1cbc b414 c9bb d8a8 0abe

linear3.weight f4 [10, 84]
0.22487038 0.09675929 0.16355158 0.28656608 -0.08170552 0.19809578 -0.0049897754 0.19457479
0.05193938 0.29977643 -0.066944554 0.014273532 0.11287696 -0.16482763 -0.18000756 0.025226694
-0.037621062 -0.27295342 -0.16752316 -0.17444105 0.3627452 -0.030390069 -0.0339628 0.046163086
0.08438777 -0.22103181 0.057060853 0.013982129 0.39992157 0.20756683 0.009313886 -0.06811037
-0.2142814 0.07582311 0.049228985 0.2790227 -0.011912717 0.19756064 -0.04802873 0.25432402
-0.16121224 0.055920947 -0.15635593 0.01050423 -0.17770803 -0.04324617 -0.27696714 -0.07886368
-0.047801234 -0.10609938 0.092904724 -0.077625096 -0.080505036 -0.12861614 0.39139155 -0.052590925
-0.23139235 0.042178657 0.25691894 -0.12927856 0.11457116 -0.10157125 0.10420011 -0.07166618
-0.15972182 -0.10147499 0.008273142 -0.039113514 0.046489723 -0.25318253 -0.13196604 0.06520276
0.21101855 0.05975423 0.3459435 -0.012506877 -0.0353537 0.08210158 -0.053907916 -0.26406437
-0.011255645 0.04190639 0.2887906 -0.1773739 0.065891616 0.38629246 0.33258232 -0.103199914
0.064126104 0.13090782 -0.21960741 -0.14858077 0.020239782 0.09202019 -0.05445662 -0.026581634
0.100741446 0.038791627 0.05314974 0.022369346 0.086637266 0.11365241 -0.1940906 -0.17930888
-0.274869 0.10592353 0.107343756 -0.012994156 -0.009084524 0.3402373 -0.0075348807 0.04189832
-0.20308451 -0.08309548 -0.021719933 -0.05864646 0.12927175 -0.22197895 0.021883141 -0.032148127
-0.064698026 -0.10378943 0.2258293 0.1644261 0.14434904 0.098246664 -0.016714737 0.10723821
-0.45384246 -0.10880754 0.070414595 0.08724074 0.0753135 0.0062932107 0.09419165 -0.17039703
0.23949447 -0.02265157 0.09310462 -0.21540065 -0.039571352 -0.17233747 0.36312798 -0.09381274
0.1855822 -0.0057150368 -0.061192192 -0.17832148 0.02019783 0.023270331 0.013504592 -0.09669318
0.33849147 0.031622976 0.024115069 -0.098158665 -0.22440596 0.0073930603 -0.24500781 -0.043642636
0.01838658 0.097663835 -0.34371078 -0.3395169 0.07019013 0.082214 -0.21427113 0.18643528
-0.18269153 0.02408237 -0.025172953 0.14302437 0.034300104 0.09107401 0.14949898 -0.10138936
0.2808603 0.06298423 -0.3369112 -0.20932116 0.1747559 0.022568535 -0.18096212 0.024070475
-0.0837143 0.25492975 0.2795892 0.14301494 0.2314791 -0.004666911 0.14787517 0.13351427
0.11436687 0.09072563 -0.035943232 0.16570227 -0.024107328 0.14485604 -0.014648513 -0.17620826
0.28626344 -0.077264175 0.040339634 0.21484081 0.027411612 0.10923314 -0.3068121 0.09676603
0.04796997 0.07551633 0.2544956 -0.05437093 0.11671576 0.0034581588 -0.18897223 -0.12218694
-0.11224618 -0.21252605 -0.026282057 -0.14973691 -0.14875978 0.42655617 0.09793777 0.11301931
-0.30059382 0.030022202 0.047990482 0.18523267 -0.3231812 0.1965751 -0.07997821 0.06661422
0.01715946 -0.044892635 0.02492955 0.0077873487 -0.17122006 0.022480669 0.11822829 0.09495847
0.317233 0.36062795 0.013484411 -0.1996134 0.024980035 -0.023066137 -0.3020945 0.060122695
0.22986822 0.10915964 0.034639996 -0.04256342 0.13756862 -0.11025668 0.07435447 -0.22277875
00000000: 6c44 663e bc29 c63d 117a 273e cab8 923e
00000010: 3955 a7bd 9fd9 4a3e 4581 a3bb 9d3e 473e
00000020: 63be 543d 4c7c 993e 3a1a 89bd 88db 693c
00000030: 092c e73d 93c8 28be e753 38be 36a8 ce3c
00000040: 8b18 1abd 8dc0 8bbe 318b 2bbe ada0 32be
00000050: bdb9 b93e 98f4 f8bc 941c 0bbd 8115 3d3d
00000060: 7fd3 ac3d 2a56 62be a4b8 693d 4d15 653c
00000070: 85c2 cc3e 668c 543e 4599 183c 737d 8bbd
00000080: 956c 5bbe 2649 9b3d 55a4 493d 10dc 8e3e
00000090: 8e2d 43bc 564d 4a3e c6b9 44bd c236 823e
000000a0: d214 25be 5d0d 653d c51b 20be ef19 2c3c
000000b0: 18f9 35be e522 31bd a3ce 8dbe 4883 a1bd
000000c0: 3acb 43bd a24a d9bd d544 be3d e8f9 9ebd
000000d0: d3df a4bd f3b3 03be 7964 c83e 9569 57bd
000000e0: 1ef2 6cbe 87c3 2c3d e18a 833e 9961 04be
000000f0: 49a4 ea3d 9604 d0bd de66 d53d b8c5 92bd
00000100: 1e8e 23be 1fd2 cfbd 138c 073c 7e35 20bd
00000110: 026c 3e3d 24a1 81be 1b22 07be 0689 853d
00000120: 3f15 583e dac0 743d 821f b13e a5e9 4cbc
00000130: 0bcf 10bd e024 a83d 8cce 5cbd 7233 87be
00000140: 9969 38bc 09a6 2b3d 5ddc 933e 81a1 35be
00000150: 2ff2 863d 20c8 c53e 3b48 aa3e 7a5a d3bd
00000160: 8c54 833d b30c 063e c4e0 60be 8f25 18be
00000170: e6cd a53c 1575 bc3d e80d 5fbd bac1 d9bc
00000180: 8851 ce3d f8e3 1e3d 8bb3 593d eb3f b73c
00000190: e16e b13d 98c2 e83d b0bf 46be bf9c 37be
000001a0: a1bb 8cbe 70ee d83d 0bd7 db3d 71e5 54bc
000001b0: 41d7 14bc 9533 ae3e 29e7 f6bb 939d 2b3d
000001c0: 63f5 4fbe f72d aabd 00ee b1bc 4537 70bd
000001d0: d05f 043e 734e 63be 4644 b33c c1ad 03bd
000001e0: 6680 84bd 8d8f d4bd cc3f 673e 515f 283e
000001f0: 3cd0 133e 8c35 c93d 58ed 88bc b59f db3d
00000200: 0a5e e8be 7dd6 debd 8735 903d 46ab b23d
00000210: f73d 9a3d 4737 ce3b 8de7 c03d 8f7c 2ebe
00000220: 0a3e 753e c98f b9bc a3ad be3d fd91 5cbe
00000230: 9215 22bd 3c79 30be e9eb b93e e520 c0bd
00000240: 4309 3e3e 3445 bbbb aaa4 7abd e899 36be
00000250: eb75 a53c 6ca1 be3c 5d42 5d3c 1307 c6bd
00000260: c14e ad3e 1887 013d f78c c53c 6907 c9bd
00000270: adca 65be 7c41 f23b 54e3 7abe 9fc2 32bd
00000280: 749f 963c fa03 c83d dcfa afbe 29d5 adbe
00000290: d8bf 8f3d d05f a83d e469 5bbe e4e8 3e3e
000002a0: 7d13 3bbe 6448 c53c 8237 cebc fb74 123e
000002b0: 447e 0c3d 0385 ba3d 4316 193e 3aa5 cfbd
000002c0: eccc 8f3e e0fd 803d a07f acbe 4958 56be
000002d0: 36f3 323e a6e1 b83c 224e 39be 722f c53c
000002e0: 6772 abbd 2786 823e 5126 8f3e 8272 123e
000002f0: db08 6d3e e3ec 98bb 976c 173e f7b7 083e
00000300: 2d39 ea3d 5cce b93d 3639 13bd dbad 293e
00000310: bb7c c5bc 2455 143e 5100 70bc f06f 34be
00000320: 1f91 923e ae3c 9ebd 2c3b 253d 3bff 5b3e
00000330: 518e e03c a0b5 df3d 7a16 9dbe 452d c63d
00000340: 297c 443d 4ea8 9a3d 3f4d 823e 0db4 5ebd
00000350: ac08 ef3d 47a2 623b f081 41be 253d fabd
00000360: 53e1 e5bd 6ea0 59be 784d d7bc a254 19be
00000370: 7c54 18be 9265 da3e 9993 c83d ab76 e73d
00000380: 6fe7 99be 1ff1 f53c ab91 443d a2ad 3d3e
00000390: 0278 a5be fc4a 493e 9ecb a3bd 096d 883d
000003a0: ff91 8c3c 57e1 37bd 0e39 cc3c 042d ff3b
000003b0: 5054 2fbe 6129 b83c ac21 f23d 9679 c23d
000003c0: 5d6c a23e 3aa4 b83e b8ed 5c3c 7567 4cbe
000003d0: eea2 cc3c 32f5 bcbc 21ac 9abe 3743 763d
000003e0: 9362 6b3e 178f df3d abe2 0d3d fb56 2ebd
000003f0: cade 0c3e 41ce e1bd 2847 983d 1d20 64be

linear3.bias f4 [10]
-0.07850768 -0.40166754 0.10316743 0.010535342 0.5557892 -0.15126608 -0.013448302 -0.2145584
0.3768526 -0.28761706
00000000: a2c8 a0bd 5ea7 cdbe 7249 d33d 6d9c 2c3c
00000010: 3348 0e3f 7fe5 1abe 4456 5cbc 32b5 5bbe
00000020: d3f2 c03e 8b42 93be
